…
net: "/SegNet/Models/segnet_train.prototxt"
train_state {
  level: 0
  stage: ""
}
test_initialization: false
I0328 17:43:58.900944    34 solver.cpp:91] Creating training net from net file: /SegNet/Models/segnet_train.prototxt
I0328 17:43:58.902943    34 net.cpp:58] Initializing net from parameters: 
name: "VGG_ILSVRC_16_layer"
state {
  phase: TRAIN
  level: 0
  stage: ""
}
layer {
  name: "data"
  type: "DenseImageData"
  top: "data"
  top: "label"
  dense_image_data_param {
    source: "/SegNet/CamVid/train.txt"
    batch_size: 2
    shuffle: true
  }
}
layer {
  name: "conv1_1"
  type: "Convolution"
  bottom: "data"
  top: "conv1_1"
  param {
    lr_mult: 1
    decay_mult: 1
  }
  param {
    lr_mult: 2
    decay_mult: 0
  }
  convolution_param {
    num_output: 64
    pad: 1
    kernel_size: 3
    weight_filler {
      type: "msra"
    }
    bias_filler {
      type: "constant"
    }
  }
}
layer {
  name: "conv1_1_bn"
  type: "BN"
  bottom: "conv1_1"
  top: "conv1_1"
  param {
    lr_mult: 1
    decay_mult: 1
  }
  param {
    lr_mult: 1
    decay_mult: 0
  }
  bn_param {
    scale_filler {
      type: "constant"
      value: 1
    }
    shift_filler {
      type: "constant"
      value: 0.001
    }
  }
}
layer {
  name: "relu1_1"
  type: "ReLU"
  bottom: "conv1_1"
  top: "conv1_1"
}
layer {
  name: "conv1_2"
  type: "Convolution"
  bottom: "conv1_1"
  top: "conv1_2"
  param {
    lr_mult: 1
    decay_mult: 1
  }
  param {
    lr_mult: 2
    decay_mult: 0
  }
  convolution_param {
    num_output: 64
    pad: 1
    kernel_size: 3
    weight_filler {
      type: "msra"
    }
    bias_filler {
      type: "constant"
    }
  }
}
layer {
  name: "conv1_2_bn"
  type: "BN"
  bottom: "conv1_2"
  top: "conv1_2"
  param {
    lr_mult: 1
    decay_mult: 1
  }
  param {
    lr_mult: 1
    decay_mult: 0
  }
  bn_param {
    scale_filler {
      type: "constant"
      value: 1
    }
    shift_filler {
      type: "constant"
      value: 0.001
    }
  }
}
layer {
  name: "relu1_2"
  type: "ReLU"
  bottom: "conv1_2"
  top: "conv1_2"
}
layer {
  name: "pool1"
  type: "Pooling"
  bottom: "conv1_2"
  top: "pool1"
  top: "pool1_mask"
  pooling_param {
    pool: MAX
    kernel_size: 2
    stride: 2
  }
}
layer {
  name: "conv2_1"
  type: "Convolution"
  bottom: "pool1"
  top: "conv2_1"
  param {
    lr_mult: 1
    decay_mult: 1
  }
  param {
    lr_mult: 2
    decay_mult: 0
  }
  convolution_param {
    num_output: 128
    pad: 1
    kernel_size: 3
    weight_filler {
      type: "msra"
    }
    bias_filler {
      type: "constant"
    }
  }
}
layer {
  name: "conv2_1_bn"
  type: "BN"
  bottom: "conv2_1"
  top: "conv2_1"
  param {
    lr_mult: 1
    decay_mult: 1
  }
  param {
    lr_mult: 1
    decay_mult: 0
  }
  bn_param {
    scale_filler {
      type: "constant"
      value: 1
    }
    shift_filler {
      type: "constant"
      value: 0.001
    }
  }
}
layer {
  name: "relu2_1"
  type: "ReLU"
  bottom: "conv2_1"
  top: "conv2_1"
}
layer {
  name: "conv2_2"
  type: "Convolution"
  bottom: "conv2_1"
  top: "conv2_2"
  param {
    lr_mult: 1
    decay_mult: 1
  }
  param {
    lr_mult: 2
    decay_mult: 0
  }
  convolution_param {
    num_output: 128
    pad: 1
    kernel_size: 3
    weight_filler {
      type: "msra"
    }
    bias_filler {
      type: "constant"
    }
  }
}
layer {
  name: "conv2_2_bn"
  type: "BN"
  bottom: "conv2_2"
  top: "conv2_2"
  param {
    lr_mult: 1
    decay_mult: 1
  }
  param {
    lr_mult: 1
    decay_mult: 0
  }
  bn_param {
    scale_filler {
      type: "constant"
      value: 1
    }
    shift_filler {
      type: "constant"
      value: 0.001
    }
  }
}
layer {
  name: "relu2_2"
  type: "ReLU"
  bottom: "conv2_2"
  top: "conv2_2"
}
layer {
  name: "pool2"
  type: "Pooling"
  bottom: "conv2_2"
  top: "pool2"
  top: "pool2_mask"
  pooling_param {
    pool: MAX
    kernel_size: 2
    stride: 2
  }
}
layer {
  name: "conv3_1"
  type: "Convolution"
  bottom: "pool2"
  top: "conv3_1"
  param {
    lr_mult: 1
    decay_mult: 1
  }
  param {
    lr_mult: 2
    decay_mult: 0
  }
  convolution_param {
    num_output: 256
    pad: 1
    kernel_size: 3
    weight_filler {
      type: "msra"
    }
    bias_filler {
      type: "constant"
    }
  }
}
layer {
  name: "conv3_1_bn"
  type: "BN"
  bottom: "conv3_1"
  top: "conv3_1"
  param {
    lr_mult: 1
    decay_mult: 1
  }
  param {
    lr_mult: 1
    decay_mult: 0
  }
  bn_param {
    scale_filler {
      type: "constant"
      value: 1
    }
    shift_filler {
      type: "constant"
      value: 0.001
    }
  }
}
layer {
  name: "relu3_1"
  type: "ReLU"
  bottom: "conv3_1"
  top: "conv3_1"
}
layer {
  name: "conv3_2"
  type: "Convolution"
  bottom: "conv3_1"
  top: "conv3_2"
  param {
    lr_mult: 1
    decay_mult: 1
  }
  param {
    lr_mult: 2
    decay_mult: 0
  }
  convolution_param {
    num_output: 256
    pad: 1
    kernel_size: 3
    weight_filler {
      type: "msra"
    }
    bias_filler {
      type: "constant"
    }
  }
}
layer {
  name: "conv3_2_bn"
  type: "BN"
  bottom: "conv3_2"
  top: "conv3_2"
  param {
    lr_mult: 1
    decay_mult: 1
  }
  param {
    lr_mult: 1
    decay_mult: 0
  }
  bn_param {
    scale_filler {
      type: "constant"
      value: 1
    }
    shift_filler {
      type: "constant"
      value: 0.001
    }
  }
}
layer {
  name: "relu3_2"
  type: "ReLU"
  bottom: "conv3_2"
  top: "conv3_2"
}
layer {
  name: "conv3_3"
  type: "Convolution"
  bottom: "conv3_2"
  top: "conv3_3"
  param {
    lr_mult: 1
    decay_mult: 1
  }
  param {
    lr_mult: 2
    decay_mult: 0
  }
  convolution_param {
    num_output: 256
    pad: 1
    kernel_size: 3
    weight_filler {
      type: "msra"
    }
    bias_filler {
      type: "constant"
    }
  }
}
layer {
  name: "conv3_3_bn"
  type: "BN"
  bottom: "conv3_3"
  top: "conv3_3"
  param {
    lr_mult: 1
    decay_mult: 1
  }
  param {
    lr_mult: 1
    decay_mult: 0
  }
  bn_param {
    scale_filler {
      type: "constant"
      value: 1
    }
    shift_filler {
      type: "constant"
      value: 0.001
    }
  }
}
layer {
  name: "relu3_3"
  type: "ReLU"
  bottom: "conv3_3"
  top: "conv3_3"
}
layer {
  name: "pool3"
  type: "Pooling"
  bottom: "conv3_3"
  top: "pool3"
  top: "pool3_mask"
  pooling_param {
    pool: MAX
    kernel_size: 2
    stride: 2
  }
}
layer {
  name: "conv4_1"
  type: "Convolution"
  bottom: "pool3"
  top: "conv4_1"
  param {
    lr_mult: 1
    decay_mult: 1
  }
  param {
    lr_mult: 2
    decay_mult: 0
  }
  convolution_param {
    num_output: 512
    pad: 1
    kernel_size: 3
    weight_filler {
      type: "msra"
    }
    bias_filler {
      type: "constant"
    }
  }
}
layer {
  name: "conv4_1_bn"
  type: "BN"
  bottom: "conv4_1"
  top: "conv4_1"
  param {
    lr_mult: 1
    decay_mult: 1
  }
  param {
    lr_mult: 1
    decay_mult: 0
  }
  bn_param {
    scale_filler {
      type: "constant"
      value: 1
    }
    shift_filler {
      type: "constant"
      value: 0.001
    }
  }
}
layer {
  name: "relu4_1"
  type: "ReLU"
  bottom: "conv4_1"
  top: "conv4_1"
}
layer {
  name: "conv4_2"
  type: "Convolution"
  bottom: "conv4_1"
  top: "conv4_2"
  param {
    lr_mult: 1
    decay_mult: 1
  }
  param {
    lr_mult: 2
    decay_mult: 0
  }
  convolution_param {
    num_output: 512
    pad: 1
    kernel_size: 3
    weight_filler {
      type: "msra"
    }
    bias_filler {
      type: "constant"
    }
  }
}
layer {
  name: "conv4_2_bn"
  type: "BN"
  bottom: "conv4_2"
  top: "conv4_2"
  param {
    lr_mult: 1
    decay_mult: 1
  }
  param {
    lr_mult: 1
    decay_mult: 0
  }
  bn_param {
    scale_filler {
      type: "constant"
      value: 1
    }
    shift_filler {
      type: "constant"
      value: 0.001
    }
  }
}
layer {
  name: "relu4_2"
  type: "ReLU"
  bottom: "conv4_2"
  top: "conv4_2"
}
layer {
  name: "conv4_3"
  type: "Convolution"
  bottom: "conv4_2"
  top: "conv4_3"
  param {
    lr_mult: 1
    decay_mult: 1
  }
  param {
    lr_mult: 2
    decay_mult: 0
  }
  convolution_param {
    num_output: 512
    pad: 1
    kernel_size: 3
    weight_filler {
      type: "msra"
    }
    bias_filler {
      type: "constant"
    }
  }
}
layer {
  name: "conv4_3_bn"
  type: "BN"
  bottom: "conv4_3"
  top: "conv4_3"
  param {
    lr_mult: 1
    decay_mult: 1
  }
  param {
    lr_mult: 1
    decay_mult: 0
  }
  bn_param {
    scale_filler {
      type: "constant"
      value: 1
    }
    shift_filler {
      type: "constant"
      value: 0.001
    }
  }
}
layer {
  name: "relu4_3"
  type: "ReLU"
  bottom: "conv4_3"
  top: "conv4_3"
}
layer {
  name: "pool4"
  type: "Pooling"
  bottom: "conv4_3"
  top: "pool4"
  top: "pool4_mask"
  pooling_param {
    pool: MAX
    kernel_size: 2
    stride: 2
  }
}
layer {
  name: "conv5_1"
  type: "Convolution"
  bottom: "pool4"
  top: "conv5_1"
  param {
    lr_mult: 1
    decay_mult: 1
  }
  param {
    lr_mult: 2
    decay_mult: 0
  }
  convolution_param {
    num_output: 512
    pad: 1
    kernel_size: 3
    weight_filler {
      type: "msra"
    }
    bias_filler {
      type: "constant"
    }
  }
}
layer {
  name: "conv5_1_bn"
  type: "BN"
  bottom: "conv5_1"
  top: "conv5_1"
  param {
    lr_mult: 1
    decay_mult: 1
  }
  param {
    lr_mult: 1
    decay_mult: 0
  }
  bn_param {
    scale_filler {
      type: "constant"
      value: 1
    }
    shift_filler {
      type: "constant"
      value: 0.001
    }
  }
}
layer {
  name: "relu5_1"
  type: "ReLU"
  bottom: "conv5_1"
  top: "conv5_1"
}
layer {
  name: "conv5_2"
  type: "Convolution"
  bottom: "conv5_1"
  top: "conv5_2"
  param {
    lr_mult: 1
    decay_mult: 1
  }
  param {
    lr_mult: 2
    decay_mult: 0
  }
  convolution_param {
    num_output: 512
    pad: 1
    kernel_size: 3
    weight_filler {
      type: "msra"
    }
    bias_filler {
      type: "constant"
    }
  }
}
layer {
  name: "conv5_2_bn"
  type: "BN"
  bottom: "conv5_2"
  top: "conv5_2"
  param {
    lr_mult: 1
    decay_mult: 1
  }
  param {
    lr_mult: 1
    decay_mult: 0
  }
  bn_param {
    scale_filler {
      type: "constant"
      value: 1
    }
    shift_filler {
      type: "constant"
      value: 0.001
    }
  }
}
layer {
  name: "relu5_2"
  type: "ReLU"
  bottom: "conv5_2"
  top: "conv5_2"
}
layer {
  name: "conv5_3"
  type: "Convolution"
  bottom: "conv5_2"
  top: "conv5_3"
  param {
    lr_mult: 1
    decay_mult: 1
  }
  param {
    lr_mult: 2
    decay_mult: 0
  }
  convolution_param {
    num_output: 512
    pad: 1
    kernel_size: 3
    weight_filler {
      type: "msra"
    }
    bias_filler {
      type: "constant"
    }
  }
}
layer {
  name: "conv5_3_bn"
  type: "BN"
  bottom: "conv5_3"
  top: "conv5_3"
  param {
    lr_mult: 1
    decay_mult: 1
  }
  param {
    lr_mult: 1
    decay_mult: 0
  }
  bn_param {
    scale_filler {
      type: "constant"
      value: 1
    }
    shift_filler {
      type: "constant"
      value: 0.001
    }
  }
}
layer {
  name: "relu5_3"
  type: "ReLU"
  bottom: "conv5_3"
  top: "conv5_3"
}
layer {
  name: "pool5"
  type: "Pooling"
  bottom: "conv5_3"
  top: "pool5"
  top: "pool5_mask"
  pooling_param {
    pool: MAX
    kernel_size: 2
    stride: 2
  }
}
layer {
  name: "upsample5"
  type: "Upsample"
  bottom: "pool5"
  bottom: "pool5_mask"
  top: "pool5_D"
  upsample_param {
    scale: 2
    upsample_h: 23
    upsample_w: 30
  }
}
layer {
  name: "conv5_3_D"
  type: "Convolution"
  bottom: "pool5_D"
  top: "conv5_3_D"
  param {
    lr_mult: 1
    decay_mult: 1
  }
  param {
    lr_mult: 2
    decay_mult: 0
  }
  convolution_param {
    num_output: 512
    pad: 1
    kernel_size: 3
    weight_filler {
      type: "msra"
    }
    bias_filler {
      type: "constant"
    }
  }
}
layer {
  name: "conv5_3_D_bn"
  type: "BN"
  bottom: "conv5_3_D"
  top: "conv5_3_D"
  param {
    lr_mult: 1
    decay_mult: 1
  }
  param {
    lr_mult: 1
    decay_mult: 0
  }
  bn_param {
    scale_filler {
      type: "constant"
      value: 1
    }
    shift_filler {
      type: "constant"
      value: 0.001
    }
  }
}
layer {
  name: "relu5_3_D"
  type: "ReLU"
  bottom: "conv5_3_D"
  top: "conv5_3_D"
}
layer {
  name: "conv5_2_D"
  type: "Convolution"
  bottom: "conv5_3_D"
  top: "conv5_2_D"
  param {
    lr_mult: 1
    decay_mult: 1
  }
  param {
    lr_mult: 2
    decay_mult: 0
  }
  convolution_param {
    num_output: 512
    pad: 1
    kernel_size: 3
    weight_filler {
      type: "msra"
    }
    bias_filler {
      type: "constant"
    }
  }
}
layer {
  name: "conv5_2_D_bn"
  type: "BN"
  bottom: "conv5_2_D"
  top: "conv5_2_D"
  param {
    lr_mult: 1
    decay_mult: 1
  }
  param {
    lr_mult: 1
    decay_mult: 0
  }
  bn_param {
    scale_filler {
      type: "constant"
      value: 1
    }
    shift_filler {
      type: "constant"
      value: 0.001
    }
  }
}
layer {
  name: "relu5_2_D"
  type: "ReLU"
  bottom: "conv5_2_D"
  top: "conv5_2_D"
}
layer {
  name: "conv5_1_D"
  type: "Convolution"
  bottom: "conv5_2_D"
  top: "conv5_1_D"
  param {
    lr_mult: 1
    decay_mult: 1
  }
  param {
    lr_mult: 2
    decay_mult: 0
  }
  convolution_param {
    num_output: 512
    pad: 1
    kernel_size: 3
    weight_filler {
      type: "msra"
    }
    bias_filler {
      type: "constant"
    }
  }
}
layer {
  name: "conv5_1_D_bn"
  type: "BN"
  bottom: "conv5_1_D"
  top: "conv5_1_D"
  param {
    lr_mult: 1
    decay_mult: 1
  }
  param {
    lr_mult: 1
    decay_mult: 0
  }
  bn_param {
    scale_filler {
      type: "constant"
      value: 1
    }
    shift_filler {
      type: "constant"
      value: 0.001
    }
  }
}
layer {
  name: "relu5_1_D"
  type: "ReLU"
  bottom: "conv5_1_D"
  top: "conv5_1_D"
}
layer {
  name: "upsample4"
  type: "Upsample"
  bottom: "conv5_1_D"
  bottom: "pool4_mask"
  top: "pool4_D"
  upsample_param {
    scale: 2
    upsample_h: 45
    upsample_w: 60
  }
}
layer {
  name: "conv4_3_D"
  type: "Convolution"
  bottom: "pool4_D"
  top: "conv4_3_D"
  param {
    lr_mult: 1
    decay_mult: 1
  }
  param {
    lr_mult: 2
    decay_mult: 0
  }
  convolution_param {
    num_output: 512
    pad: 1
    kernel_size: 3
    weight_filler {
      type: "msra"
    }
    bias_filler {
      type: "constant"
    }
  }
}
layer {
  name: "conv4_3_D_bn"
  type: "BN"
  bottom: "conv4_3_D"
  top: "conv4_3_D"
  param {
    lr_mult: 1
    decay_mult: 1
  }
  param {
    lr_mult: 1
    decay_mult: 0
  }
  bn_param {
    scale_filler {
      type: "constant"
      value: 1
    }
    shift_filler {
      type: "constant"
      value: 0.001
    }
  }
}
layer {
  name: "relu4_3_D"
  type: "ReLU"
  bottom: "conv4_3_D"
  top: "conv4_3_D"
}
layer {
  name: "conv4_2_D"
  type: "Convolution"
  bottom: "conv4_3_D"
  top: "conv4_2_D"
  param {
    lr_mult: 1
    decay_mult: 1
  }
  param {
    lr_mult: 2
    decay_mult: 0
  }
  convolution_param {
    num_output: 512
    pad: 1
    kernel_size: 3
    weight_filler {
      type: "msra"
    }
    bias_filler {
      type: "constant"
    }
  }
}
layer {
  name: "conv4_2_D_bn"
  type: "BN"
  bottom: "conv4_2_D"
  top: "conv4_2_D"
  param {
    lr_mult: 1
    decay_mult: 1
  }
  param {
    lr_mult: 1
    decay_mult: 0
  }
  bn_param {
    scale_filler {
      type: "constant"
      value: 1
    }
    shift_filler {
      type: "constant"
      value: 0.001
    }
  }
}
layer {
  name: "relu4_2_D"
  type: "ReLU"
  bottom: "conv4_2_D"
  top: "conv4_2_D"
}
layer {
  name: "conv4_1_D"
  type: "Convolution"
  bottom: "conv4_2_D"
  top: "conv4_1_D"
  param {
    lr_mult: 1
    decay_mult: 1
  }
  param {
    lr_mult: 2
    decay_mult: 0
  }
  convolution_param {
    num_output: 256
    pad: 1
    kernel_size: 3
    weight_filler {
      type: "msra"
    }
    bias_filler {
      type: "constant"
    }
  }
}
layer {
  name: "conv4_1_D_bn"
  type: "BN"
  bottom: "conv4_1_D"
  top: "conv4_1_D"
  param {
    lr_mult: 1
    decay_mult: 1
  }
  param {
    lr_mult: 1
    decay_mult: 0
  }
  bn_param {
    scale_filler {
      type: "constant"
      value: 1
    }
    shift_filler {
      type: "constant"
      value: 0.001
    }
  }
}
layer {
  name: "relu4_1_D"
  type: "ReLU"
  bottom: "conv4_1_D"
  top: "conv4_1_D"
}
layer {
  name: "upsample3"
  type: "Upsample"
  bottom: "conv4_1_D"
  bottom: "pool3_mask"
  top: "pool3_D"
  upsample_param {
    scale: 2
  }
}
layer {
  name: "conv3_3_D"
  type: "Convolution"
  bottom: "pool3_D"
  top: "conv3_3_D"
  param {
    lr_mult: 1
    decay_mult: 1
  }
  param {
    lr_mult: 2
    decay_mult: 0
  }
  convolution_param {
    num_output: 256
    pad: 1
    kernel_size: 3
    weight_filler {
      type: "msra"
    }
    bias_filler {
      type: "constant"
    }
  }
}
layer {
  name: "conv3_3_D_bn"
  type: "BN"
  bottom: "conv3_3_D"
  top: "conv3_3_D"
  param {
    lr_mult: 1
    decay_mult: 1
  }
  param {
    lr_mult: 1
    decay_mult: 0
  }
  bn_param {
    scale_filler {
      type: "constant"
      value: 1
    }
    shift_filler {
      type: "constant"
      value: 0.001
    }
  }
}
layer {
  name: "relu3_3_D"
  type: "ReLU"
  bottom: "conv3_3_D"
  top: "conv3_3_D"
}
layer {
  name: "conv3_2_D"
  type: "Convolution"
  bottom: "conv3_3_D"
  top: "conv3_2_D"
  param {
    lr_mult: 1
    decay_mult: 1
  }
  param {
    lr_mult: 2
    decay_mult: 0
  }
  convolution_param {
    num_output: 256
    pad: 1
    kernel_size: 3
    weight_filler {
      type: "msra"
    }
    bias_filler {
      type: "constant"
    }
  }
}
layer {
  name: "conv3_2_D_bn"
  type: "BN"
  bottom: "conv3_2_D"
  top: "conv3_2_D"
  param {
    lr_mult: 1
    decay_mult: 1
  }
  param {
    lr_mult: 1
    decay_mult: 0
  }
  bn_param {
    scale_filler {
      type: "constant"
      value: 1
    }
    shift_filler {
      type: "constant"
      value: 0.001
    }
  }
}
layer {
  name: "relu3_2_D"
  type: "ReLU"
  bottom: "conv3_2_D"
  top: "conv3_2_D"
}
layer {
  name: "conv3_1_D"
  type: "Convolution"
  bottom: "conv3_2_D"
  top: "conv3_1_D"
  param {
    lr_mult: 1
    decay_mult: 1
  }
  param {
    lr_mult: 2
    decay_mult: 0
  }
  convolution_param {
    num_output: 128
    pad: 1
    kernel_size: 3
    weight_filler {
      type: "msra"
    }
    bias_filler {
      type: "constant"
    }
  }
}
layer {
  name: "conv3_1_D_bn"
  type: "BN"
  bottom: "conv3_1_D"
  top: "conv3_1_D"
  param {
    lr_mult: 1
    decay_mult: 1
  }
  param {
    lr_mult: 1
    decay_mult: 0
  }
  bn_param {
    scale_filler {
      type: "constant"
      value: 1
    }
    shift_filler {
      type: "constant"
      value: 0.001
    }
  }
}
layer {
  name: "relu3_1_D"
  type: "ReLU"
  bottom: "conv3_1_D"
  top: "conv3_1_D"
}
layer {
  name: "upsample2"
  type: "Upsample"
  bottom: "conv3_1_D"
  bottom: "pool2_mask"
  top: "pool2_D"
  upsample_param {
    scale: 2
  }
}
layer {
  name: "conv2_2_D"
  type: "Convolution"
  bottom: "pool2_D"
  top: "conv2_2_D"
  param {
    lr_mult: 1
    decay_mult: 1
  }
  param {
    lr_mult: 2
    decay_mult: 0
  }
  convolution_param {
    num_output: 128
    pad: 1
    kernel_size: 3
    weight_filler {
      type: "msra"
    }
    bias_filler {
      type: "constant"
    }
  }
}
layer {
  name: "conv2_2_D_bn"
  type: "BN"
  bottom: "conv2_2_D"
  top: "conv2_2_D"
  param {
    lr_mult: 1
    decay_mult: 1
  }
  param {
    lr_mult: 1
    decay_mult: 0
  }
  bn_param {
    scale_filler {
      type: "constant"
      value: 1
    }
    shift_filler {
      type: "constant"
      value: 0.001
    }
  }
}
layer {
  name: "relu2_2_D"
  type: "ReLU"
  bottom: "conv2_2_D"
  top: "conv2_2_D"
}
layer {
  name: "conv2_1_D"
  type: "Convolution"
  bottom: "conv2_2_D"
  top: "conv2_1_D"
  param {
    lr_mult: 1
    decay_mult: 1
  }
  param {
    lr_mult: 2
    decay_mult: 0
  }
  convolution_param {
    num_output: 64
    pad: 1
    kernel_size: 3
    weight_filler {
      type: "msra"
    }
    bias_filler {
      type: "constant"
    }
  }
}
layer {
  name: "conv2_1_D_bn"
  type: "BN"
  bottom: "conv2_1_D"
  top: "conv2_1_D"
  param {
    lr_mult: 1
    decay_mult: 1
  }
  param {
    lr_mult: 1
    decay_mult: 0
  }
  bn_param {
    scale_filler {
      type: "constant"
      value: 1
    }
    shift_filler {
      type: "constant"
      value: 0.001
    }
  }
}
layer {
  name: "relu2_1_D"
  type: "ReLU"
  bottom: "conv2_1_D"
  top: "conv2_1_D"
}
layer {
  name: "upsample1"
  type: "Upsample"
  bottom: "conv2_1_D"
  bottom: "pool1_mask"
  top: "pool1_D"
  upsample_param {
    scale: 2
  }
}
layer {
  name: "conv1_2_D"
  type: "Convolution"
  bottom: "pool1_D"
  top: "conv1_2_D"
  param {
    lr_mult: 1
    decay_mult: 1
  }
  param {
    lr_mult: 2
    decay_mult: 0
  }
  convolution_param {
    num_output: 64
    pad: 1
    kernel_size: 3
    weight_filler {
      type: "msra"
    }
    bias_filler {
      type: "constant"
    }
  }
}
layer {
  name: "conv1_2_D_bn"
  type: "BN"
  bottom: "conv1_2_D"
  top: "conv1_2_D"
  param {
    lr_mult: 1
    decay_mult: 1
  }
  param {
    lr_mult: 1
    decay_mult: 0
  }
  bn_param {
    scale_filler {
      type: "constant"
      value: 1
    }
    shift_filler {
      type: "constant"
      value: 0.001
    }
  }
}
layer {
  name: "relu1_2_D"
  type: "ReLU"
  bottom: "conv1_2_D"
  top: "conv1_2_D"
}
layer {
  name: "conv1_1_D"
  type: "Convolution"
  bottom: "conv1_2_D"
  top: "conv1_1_D"
  param {
    lr_mult: 1
    decay_mult: 1
  }
  param {
    lr_mult: 2
    decay_mult: 0
  }
  convolution_param {
    num_output: 11
    pad: 1
    kernel_size: 3
    weight_filler {
      type: "msra"
    }
    bias_filler {
      type: "constant"
    }
  }
}
layer {
  name: "loss"
  type: "SoftmaxWithLoss"
  bottom: "conv1_1_D"
  bottom: "label"
  top: "loss"
  loss_param {
    ignore_label: 11
    weight_by_label_freqs: true
    class_weighting: 0.2595
    class_weighting: 0.1826
    class_weighting: 4.564
    class_weighting: 0.1417
    class_weighting: 0.9051
    class_weighting: 0.3826
    class_weighting: 9.6446
    class_weighting: 1.8418
    class_weighting: 0.6823
    class_weighting: 6.2478
    class_weighting: 7.3614
  }
  softmax_param {
    engine: CAFFE
  }
}
layer {
  name: "accuracy"
  type: "Accuracy"
  bottom: "conv1_1_D"
  bottom: "label"
  top: "accuracy"
  top: "per_class_accuracy"
}
I0328 17:43:58.903501    34 layer_factory.hpp:77] Creating layer data
I0328 17:43:58.903538    34 net.cpp:100] Creating Layer data
I0328 17:43:58.903558    34 net.cpp:408] data -> data
I0328 17:43:58.903590    34 net.cpp:408] data -> label
I0328 17:43:58.903622    34 dense_image_data_layer.cpp:49] Opening file /SegNet/CamVid/train.txt
I0328 17:43:58.904223    34 dense_image_data_layer.cpp:59] Shuffling data
I0328 17:43:58.904649    34 dense_image_data_layer.cpp:64] A total of 367 examples.
I0328 17:43:58.923681    34 dense_image_data_layer.cpp:117] output data size: 2,3,360,480
I0328 17:43:58.926583    34 net.cpp:150] Setting up data
I0328 17:43:58.926615    34 net.cpp:157] Top shape: 2 3 360 480 (1036800)
I0328 17:43:58.926631    34 net.cpp:157] Top shape: 2 1 360 480 (345600)
I0328 17:43:58.926642    34 net.cpp:165] Memory required for data: 5529600
I0328 17:43:58.926664    34 layer_factory.hpp:77] Creating layer label_data_1_split
I0328 17:43:58.926690    34 net.cpp:100] Creating Layer label_data_1_split
I0328 17:43:58.926714    34 net.cpp:434] label_data_1_split <- label
I0328 17:43:58.926744    34 net.cpp:408] label_data_1_split -> label_data_1_split_0
I0328 17:43:58.926774    34 net.cpp:408] label_data_1_split -> label_data_1_split_1
I0328 17:43:58.926836    34 net.cpp:150] Setting up label_data_1_split
I0328 17:43:58.926858    34 net.cpp:157] Top shape: 2 1 360 480 (345600)
I0328 17:43:58.926872    34 net.cpp:157] Top shape: 2 1 360 480 (345600)
I0328 17:43:58.926882    34 net.cpp:165] Memory required for data: 8294400
I0328 17:43:58.926893    34 layer_factory.hpp:77] Creating layer conv1_1
I0328 17:43:58.926928    34 net.cpp:100] Creating Layer conv1_1
I0328 17:43:58.926949    34 net.cpp:434] conv1_1 <- data
I0328 17:43:58.926970    34 net.cpp:408] conv1_1 -> conv1_1
I0328 17:43:59.111665    34 net.cpp:150] Setting up conv1_1
I0328 17:43:59.111727    34 net.cpp:157] Top shape: 2 64 360 480 (22118400)
I0328 17:43:59.111738    34 net.cpp:165] Memory required for data: 96768000
I0328 17:43:59.111822    34 layer_factory.hpp:77] Creating layer conv1_1_bn
I0328 17:43:59.111860    34 net.cpp:100] Creating Layer conv1_1_bn
I0328 17:43:59.111874    34 net.cpp:434] conv1_1_bn <- conv1_1
I0328 17:43:59.111896    34 net.cpp:395] conv1_1_bn -> conv1_1 (in-place)
I0328 17:43:59.113338    34 net.cpp:150] Setting up conv1_1_bn
I0328 17:43:59.113365    34 net.cpp:157] Top shape: 2 64 360 480 (22118400)
I0328 17:43:59.113376    34 net.cpp:165] Memory required for data: 185241600
I0328 17:43:59.113404    34 layer_factory.hpp:77] Creating layer relu1_1
I0328 17:43:59.113425    34 net.cpp:100] Creating Layer relu1_1
I0328 17:43:59.113440    34 net.cpp:434] relu1_1 <- conv1_1
I0328 17:43:59.113456    34 net.cpp:395] relu1_1 -> conv1_1 (in-place)
I0328 17:43:59.113675    34 net.cpp:150] Setting up relu1_1
I0328 17:43:59.113703    34 net.cpp:157] Top shape: 2 64 360 480 (22118400)
I0328 17:43:59.113714    34 net.cpp:165] Memory required for data: 273715200
I0328 17:43:59.113725    34 layer_factory.hpp:77] Creating layer conv1_2
I0328 17:43:59.113754    34 net.cpp:100] Creating Layer conv1_2
I0328 17:43:59.113773    34 net.cpp:434] conv1_2 <- conv1_1
I0328 17:43:59.113791    34 net.cpp:408] conv1_2 -> conv1_2
I0328 17:43:59.116358    34 net.cpp:150] Setting up conv1_2
I0328 17:43:59.116390    34 net.cpp:157] Top shape: 2 64 360 480 (22118400)
I0328 17:43:59.116405    34 net.cpp:165] Memory required for data: 362188800
I0328 17:43:59.116427    34 layer_factory.hpp:77] Creating layer conv1_2_bn
I0328 17:43:59.116459    34 net.cpp:100] Creating Layer conv1_2_bn
I0328 17:43:59.116475    34 net.cpp:434] conv1_2_bn <- conv1_2
I0328 17:43:59.116492    34 net.cpp:395] conv1_2_bn -> conv1_2 (in-place)
I0328 17:43:59.118010    34 net.cpp:150] Setting up conv1_2_bn
I0328 17:43:59.118036    34 net.cpp:157] Top shape: 2 64 360 480 (22118400)
I0328 17:43:59.118047    34 net.cpp:165] Memory required for data: 450662400
I0328 17:43:59.118064    34 layer_factory.hpp:77] Creating layer relu1_2
I0328 17:43:59.118085    34 net.cpp:100] Creating Layer relu1_2
I0328 17:43:59.118096    34 net.cpp:434] relu1_2 <- conv1_2
I0328 17:43:59.118109    34 net.cpp:395] relu1_2 -> conv1_2 (in-place)
I0328 17:43:59.118402    34 net.cpp:150] Setting up relu1_2
I0328 17:43:59.118428    34 net.cpp:157] Top shape: 2 64 360 480 (22118400)
I0328 17:43:59.118438    34 net.cpp:165] Memory required for data: 539136000
I0328 17:43:59.118448    34 layer_factory.hpp:77] Creating layer pool1
I0328 17:43:59.118468    34 layer_factory.cpp:91] cuDNN does not support multiple tops. Using Caffe's own pooling layer.
I0328 17:43:59.118491    34 net.cpp:100] Creating Layer pool1
I0328 17:43:59.118512    34 net.cpp:434] pool1 <- conv1_2
I0328 17:43:59.118530    34 net.cpp:408] pool1 -> pool1
I0328 17:43:59.118551    34 net.cpp:408] pool1 -> pool1_mask
I0328 17:43:59.118652    34 net.cpp:150] Setting up pool1
I0328 17:43:59.118680    34 net.cpp:157] Top shape: 2 64 180 240 (5529600)
I0328 17:43:59.118692    34 net.cpp:157] Top shape: 2 64 180 240 (5529600)
I0328 17:43:59.118702    34 net.cpp:165] Memory required for data: 583372800
I0328 17:43:59.118713    34 layer_factory.hpp:77] Creating layer conv2_1
I0328 17:43:59.118738    34 net.cpp:100] Creating Layer conv2_1
I0328 17:43:59.118759    34 net.cpp:434] conv2_1 <- pool1
I0328 17:43:59.118782    34 net.cpp:408] conv2_1 -> conv2_1
I0328 17:43:59.120568    34 net.cpp:150] Setting up conv2_1
I0328 17:43:59.120595    34 net.cpp:157] Top shape: 2 128 180 240 (11059200)
I0328 17:43:59.120606    34 net.cpp:165] Memory required for data: 627609600
I0328 17:43:59.120628    34 layer_factory.hpp:77] Creating layer conv2_1_bn
I0328 17:43:59.120652    34 net.cpp:100] Creating Layer conv2_1_bn
I0328 17:43:59.120667    34 net.cpp:434] conv2_1_bn <- conv2_1
I0328 17:43:59.120687    34 net.cpp:395] conv2_1_bn -> conv2_1 (in-place)
I0328 17:43:59.120973    34 net.cpp:150] Setting up conv2_1_bn
I0328 17:43:59.120996    34 net.cpp:157] Top shape: 2 128 180 240 (11059200)
I0328 17:43:59.121007    34 net.cpp:165] Memory required for data: 671846400
I0328 17:43:59.121047    34 layer_factory.hpp:77] Creating layer relu2_1
I0328 17:43:59.121073    34 net.cpp:100] Creating Layer relu2_1
I0328 17:43:59.121083    34 net.cpp:434] relu2_1 <- conv2_1
I0328 17:43:59.121098    34 net.cpp:395] relu2_1 -> conv2_1 (in-place)
I0328 17:43:59.121382    34 net.cpp:150] Setting up relu2_1
I0328 17:43:59.121407    34 net.cpp:157] Top shape: 2 128 180 240 (11059200)
I0328 17:43:59.121419    34 net.cpp:165] Memory required for data: 716083200
I0328 17:43:59.121430    34 layer_factory.hpp:77] Creating layer conv2_2
I0328 17:43:59.121465    34 net.cpp:100] Creating Layer conv2_2
I0328 17:43:59.121486    34 net.cpp:434] conv2_2 <- conv2_1
I0328 17:43:59.121505    34 net.cpp:408] conv2_2 -> conv2_2
I0328 17:43:59.124775    34 net.cpp:150] Setting up conv2_2
I0328 17:43:59.124807    34 net.cpp:157] Top shape: 2 128 180 240 (11059200)
I0328 17:43:59.124819    34 net.cpp:165] Memory required for data: 760320000
I0328 17:43:59.124836    34 layer_factory.hpp:77] Creating layer conv2_2_bn
I0328 17:43:59.124860    34 net.cpp:100] Creating Layer conv2_2_bn
I0328 17:43:59.124871    34 net.cpp:434] conv2_2_bn <- conv2_2
I0328 17:43:59.124887    34 net.cpp:395] conv2_2_bn -> conv2_2 (in-place)
I0328 17:43:59.125705    34 net.cpp:150] Setting up conv2_2_bn
I0328 17:43:59.125738    34 net.cpp:157] Top shape: 2 128 180 240 (11059200)
I0328 17:43:59.125749    34 net.cpp:165] Memory required for data: 804556800
I0328 17:43:59.125767    34 layer_factory.hpp:77] Creating layer relu2_2
I0328 17:43:59.125783    34 net.cpp:100] Creating Layer relu2_2
I0328 17:43:59.125794    34 net.cpp:434] relu2_2 <- conv2_2
I0328 17:43:59.125813    34 net.cpp:395] relu2_2 -> conv2_2 (in-place)
I0328 17:43:59.126024    34 net.cpp:150] Setting up relu2_2
I0328 17:43:59.126047    34 net.cpp:157] Top shape: 2 128 180 240 (11059200)
I0328 17:43:59.126058    34 net.cpp:165] Memory required for data: 848793600
I0328 17:43:59.126070    34 layer_factory.hpp:77] Creating layer pool2
I0328 17:43:59.126080    34 layer_factory.cpp:91] cuDNN does not support multiple tops. Using Caffe's own pooling layer.
I0328 17:43:59.126101    34 net.cpp:100] Creating Layer pool2
I0328 17:43:59.126111    34 net.cpp:434] pool2 <- conv2_2
I0328 17:43:59.126132    34 net.cpp:408] pool2 -> pool2
I0328 17:43:59.126157    34 net.cpp:408] pool2 -> pool2_mask
I0328 17:43:59.126220    34 net.cpp:150] Setting up pool2
I0328 17:43:59.126241    34 net.cpp:157] Top shape: 2 128 90 120 (2764800)
I0328 17:43:59.126255    34 net.cpp:157] Top shape: 2 128 90 120 (2764800)
I0328 17:43:59.126263    34 net.cpp:165] Memory required for data: 870912000
I0328 17:43:59.126274    34 layer_factory.hpp:77] Creating layer conv3_1
I0328 17:43:59.126304    34 net.cpp:100] Creating Layer conv3_1
I0328 17:43:59.126323    34 net.cpp:434] conv3_1 <- pool2
I0328 17:43:59.126345    34 net.cpp:408] conv3_1 -> conv3_1
I0328 17:43:59.131697    34 net.cpp:150] Setting up conv3_1
I0328 17:43:59.131726    34 net.cpp:157] Top shape: 2 256 90 120 (5529600)
I0328 17:43:59.131736    34 net.cpp:165] Memory required for data: 893030400
I0328 17:43:59.131767    34 layer_factory.hpp:77] Creating layer conv3_1_bn
I0328 17:43:59.131794    34 net.cpp:100] Creating Layer conv3_1_bn
I0328 17:43:59.131808    34 net.cpp:434] conv3_1_bn <- conv3_1
I0328 17:43:59.131830    34 net.cpp:395] conv3_1_bn -> conv3_1 (in-place)
I0328 17:43:59.132066    34 net.cpp:150] Setting up conv3_1_bn
I0328 17:43:59.132091    34 net.cpp:157] Top shape: 2 256 90 120 (5529600)
I0328 17:43:59.132100    34 net.cpp:165] Memory required for data: 915148800
I0328 17:43:59.132122    34 layer_factory.hpp:77] Creating layer relu3_1
I0328 17:43:59.132136    34 net.cpp:100] Creating Layer relu3_1
I0328 17:43:59.132148    34 net.cpp:434] relu3_1 <- conv3_1
I0328 17:43:59.132161    34 net.cpp:395] relu3_1 -> conv3_1 (in-place)
I0328 17:43:59.132493    34 net.cpp:150] Setting up relu3_1
I0328 17:43:59.132515    34 net.cpp:157] Top shape: 2 256 90 120 (5529600)
I0328 17:43:59.132520    34 net.cpp:165] Memory required for data: 937267200
I0328 17:43:59.132541    34 layer_factory.hpp:77] Creating layer conv3_2
I0328 17:43:59.132575    34 net.cpp:100] Creating Layer conv3_2
I0328 17:43:59.132596    34 net.cpp:434] conv3_2 <- conv3_1
I0328 17:43:59.132612    34 net.cpp:408] conv3_2 -> conv3_2
I0328 17:43:59.141284    34 net.cpp:150] Setting up conv3_2
I0328 17:43:59.141310    34 net.cpp:157] Top shape: 2 256 90 120 (5529600)
I0328 17:43:59.141316    34 net.cpp:165] Memory required for data: 959385600
I0328 17:43:59.141325    34 layer_factory.hpp:77] Creating layer conv3_2_bn
I0328 17:43:59.141340    34 net.cpp:100] Creating Layer conv3_2_bn
I0328 17:43:59.141353    34 net.cpp:434] conv3_2_bn <- conv3_2
I0328 17:43:59.141365    34 net.cpp:395] conv3_2_bn -> conv3_2 (in-place)
I0328 17:43:59.141641    34 net.cpp:150] Setting up conv3_2_bn
I0328 17:43:59.141664    34 net.cpp:157] Top shape: 2 256 90 120 (5529600)
I0328 17:43:59.141669    34 net.cpp:165] Memory required for data: 981504000
I0328 17:43:59.141679    34 layer_factory.hpp:77] Creating layer relu3_2
I0328 17:43:59.141695    34 net.cpp:100] Creating Layer relu3_2
I0328 17:43:59.141707    34 net.cpp:434] relu3_2 <- conv3_2
I0328 17:43:59.141716    34 net.cpp:395] relu3_2 -> conv3_2 (in-place)
I0328 17:43:59.142043    34 net.cpp:150] Setting up relu3_2
I0328 17:43:59.142066    34 net.cpp:157] Top shape: 2 256 90 120 (5529600)
I0328 17:43:59.142071    34 net.cpp:165] Memory required for data: 1003622400
I0328 17:43:59.142077    34 layer_factory.hpp:77] Creating layer conv3_3
I0328 17:43:59.142093    34 net.cpp:100] Creating Layer conv3_3
I0328 17:43:59.142108    34 net.cpp:434] conv3_3 <- conv3_2
I0328 17:43:59.142118    34 net.cpp:408] conv3_3 -> conv3_3
I0328 17:43:59.150868    34 net.cpp:150] Setting up conv3_3
I0328 17:43:59.150892    34 net.cpp:157] Top shape: 2 256 90 120 (5529600)
I0328 17:43:59.150898    34 net.cpp:165] Memory required for data: 1025740800
I0328 17:43:59.150908    34 layer_factory.hpp:77] Creating layer conv3_3_bn
I0328 17:43:59.150921    34 net.cpp:100] Creating Layer conv3_3_bn
I0328 17:43:59.150928    34 net.cpp:434] conv3_3_bn <- conv3_3
I0328 17:43:59.150938    34 net.cpp:395] conv3_3_bn -> conv3_3 (in-place)
I0328 17:43:59.151232    34 net.cpp:150] Setting up conv3_3_bn
I0328 17:43:59.151252    34 net.cpp:157] Top shape: 2 256 90 120 (5529600)
I0328 17:43:59.151257    34 net.cpp:165] Memory required for data: 1047859200
I0328 17:43:59.151267    34 layer_factory.hpp:77] Creating layer relu3_3
I0328 17:43:59.151278    34 net.cpp:100] Creating Layer relu3_3
I0328 17:43:59.151291    34 net.cpp:434] relu3_3 <- conv3_3
I0328 17:43:59.151299    34 net.cpp:395] relu3_3 -> conv3_3 (in-place)
I0328 17:43:59.151509    34 net.cpp:150] Setting up relu3_3
I0328 17:43:59.151530    34 net.cpp:157] Top shape: 2 256 90 120 (5529600)
I0328 17:43:59.151535    34 net.cpp:165] Memory required for data: 1069977600
I0328 17:43:59.151543    34 layer_factory.hpp:77] Creating layer pool3
I0328 17:43:59.151561    34 layer_factory.cpp:91] cuDNN does not support multiple tops. Using Caffe's own pooling layer.
I0328 17:43:59.151576    34 net.cpp:100] Creating Layer pool3
I0328 17:43:59.151592    34 net.cpp:434] pool3 <- conv3_3
I0328 17:43:59.151607    34 net.cpp:408] pool3 -> pool3
I0328 17:43:59.151636    34 net.cpp:408] pool3 -> pool3_mask
I0328 17:43:59.151726    34 net.cpp:150] Setting up pool3
I0328 17:43:59.151746    34 net.cpp:157] Top shape: 2 256 45 60 (1382400)
I0328 17:43:59.151753    34 net.cpp:157] Top shape: 2 256 45 60 (1382400)
I0328 17:43:59.151758    34 net.cpp:165] Memory required for data: 1081036800
I0328 17:43:59.151764    34 layer_factory.hpp:77] Creating layer conv4_1
I0328 17:43:59.151778    34 net.cpp:100] Creating Layer conv4_1
I0328 17:43:59.151792    34 net.cpp:434] conv4_1 <- pool3
I0328 17:43:59.151803    34 net.cpp:408] conv4_1 -> conv4_1
I0328 17:43:59.168900    34 net.cpp:150] Setting up conv4_1
I0328 17:43:59.168926    34 net.cpp:157] Top shape: 2 512 45 60 (2764800)
I0328 17:43:59.168933    34 net.cpp:165] Memory required for data: 1092096000
I0328 17:43:59.168978    34 layer_factory.hpp:77] Creating layer conv4_1_bn
I0328 17:43:59.168994    34 net.cpp:100] Creating Layer conv4_1_bn
I0328 17:43:59.169001    34 net.cpp:434] conv4_1_bn <- conv4_1
I0328 17:43:59.169021    34 net.cpp:395] conv4_1_bn -> conv4_1 (in-place)
I0328 17:43:59.169337    34 net.cpp:150] Setting up conv4_1_bn
I0328 17:43:59.169360    34 net.cpp:157] Top shape: 2 512 45 60 (2764800)
I0328 17:43:59.169365    34 net.cpp:165] Memory required for data: 1103155200
I0328 17:43:59.169375    34 layer_factory.hpp:77] Creating layer relu4_1
I0328 17:43:59.169387    34 net.cpp:100] Creating Layer relu4_1
I0328 17:43:59.169404    34 net.cpp:434] relu4_1 <- conv4_1
I0328 17:43:59.169419    34 net.cpp:395] relu4_1 -> conv4_1 (in-place)
I0328 17:43:59.169742    34 net.cpp:150] Setting up relu4_1
I0328 17:43:59.169765    34 net.cpp:157] Top shape: 2 512 45 60 (2764800)
I0328 17:43:59.169770    34 net.cpp:165] Memory required for data: 1114214400
I0328 17:43:59.169776    34 layer_factory.hpp:77] Creating layer conv4_2
I0328 17:43:59.169795    34 net.cpp:100] Creating Layer conv4_2
I0328 17:43:59.169814    34 net.cpp:434] conv4_2 <- conv4_1
I0328 17:43:59.169837    34 net.cpp:408] conv4_2 -> conv4_2
I0328 17:43:59.201912    34 net.cpp:150] Setting up conv4_2
I0328 17:43:59.201951    34 net.cpp:157] Top shape: 2 512 45 60 (2764800)
I0328 17:43:59.201958    34 net.cpp:165] Memory required for data: 1125273600
I0328 17:43:59.201980    34 layer_factory.hpp:77] Creating layer conv4_2_bn
I0328 17:43:59.201997    34 net.cpp:100] Creating Layer conv4_2_bn
I0328 17:43:59.202008    34 net.cpp:434] conv4_2_bn <- conv4_2
I0328 17:43:59.202020    34 net.cpp:395] conv4_2_bn -> conv4_2 (in-place)
I0328 17:43:59.202294    34 net.cpp:150] Setting up conv4_2_bn
I0328 17:43:59.202318    34 net.cpp:157] Top shape: 2 512 45 60 (2764800)
I0328 17:43:59.202324    34 net.cpp:165] Memory required for data: 1136332800
I0328 17:43:59.202334    34 layer_factory.hpp:77] Creating layer relu4_2
I0328 17:43:59.202349    34 net.cpp:100] Creating Layer relu4_2
I0328 17:43:59.202356    34 net.cpp:434] relu4_2 <- conv4_2
I0328 17:43:59.202364    34 net.cpp:395] relu4_2 -> conv4_2 (in-place)
I0328 17:43:59.202764    34 net.cpp:150] Setting up relu4_2
I0328 17:43:59.202790    34 net.cpp:157] Top shape: 2 512 45 60 (2764800)
I0328 17:43:59.202795    34 net.cpp:165] Memory required for data: 1147392000
I0328 17:43:59.202802    34 layer_factory.hpp:77] Creating layer conv4_3
I0328 17:43:59.202849    34 net.cpp:100] Creating Layer conv4_3
I0328 17:43:59.202872    34 net.cpp:434] conv4_3 <- conv4_2
I0328 17:43:59.202891    34 net.cpp:408] conv4_3 -> conv4_3
I0328 17:43:59.234997    34 net.cpp:150] Setting up conv4_3
I0328 17:43:59.235030    34 net.cpp:157] Top shape: 2 512 45 60 (2764800)
I0328 17:43:59.235036    34 net.cpp:165] Memory required for data: 1158451200
I0328 17:43:59.235047    34 layer_factory.hpp:77] Creating layer conv4_3_bn
I0328 17:43:59.235062    34 net.cpp:100] Creating Layer conv4_3_bn
I0328 17:43:59.235072    34 net.cpp:434] conv4_3_bn <- conv4_3
I0328 17:43:59.235085    34 net.cpp:395] conv4_3_bn -> conv4_3 (in-place)
I0328 17:43:59.235375    34 net.cpp:150] Setting up conv4_3_bn
I0328 17:43:59.235404    34 net.cpp:157] Top shape: 2 512 45 60 (2764800)
I0328 17:43:59.235419    34 net.cpp:165] Memory required for data: 1169510400
I0328 17:43:59.235436    34 layer_factory.hpp:77] Creating layer relu4_3
I0328 17:43:59.235445    34 net.cpp:100] Creating Layer relu4_3
I0328 17:43:59.235451    34 net.cpp:434] relu4_3 <- conv4_3
I0328 17:43:59.235460    34 net.cpp:395] relu4_3 -> conv4_3 (in-place)
I0328 17:43:59.235672    34 net.cpp:150] Setting up relu4_3
I0328 17:43:59.235694    34 net.cpp:157] Top shape: 2 512 45 60 (2764800)
I0328 17:43:59.235702    34 net.cpp:165] Memory required for data: 1180569600
I0328 17:43:59.235712    34 layer_factory.hpp:77] Creating layer pool4
I0328 17:43:59.235730    34 layer_factory.cpp:91] cuDNN does not support multiple tops. Using Caffe's own pooling layer.
I0328 17:43:59.235749    34 net.cpp:100] Creating Layer pool4
I0328 17:43:59.235782    34 net.cpp:434] pool4 <- conv4_3
I0328 17:43:59.235796    34 net.cpp:408] pool4 -> pool4
I0328 17:43:59.235813    34 net.cpp:408] pool4 -> pool4_mask
I0328 17:43:59.235913    34 net.cpp:150] Setting up pool4
I0328 17:43:59.235934    34 net.cpp:157] Top shape: 2 512 23 30 (706560)
I0328 17:43:59.235941    34 net.cpp:157] Top shape: 2 512 23 30 (706560)
I0328 17:43:59.235946    34 net.cpp:165] Memory required for data: 1186222080
I0328 17:43:59.235951    34 layer_factory.hpp:77] Creating layer conv5_1
I0328 17:43:59.235967    34 net.cpp:100] Creating Layer conv5_1
I0328 17:43:59.235975    34 net.cpp:434] conv5_1 <- pool4
I0328 17:43:59.235985    34 net.cpp:408] conv5_1 -> conv5_1
I0328 17:43:59.267843    34 net.cpp:150] Setting up conv5_1
I0328 17:43:59.267876    34 net.cpp:157] Top shape: 2 512 23 30 (706560)
I0328 17:43:59.267882    34 net.cpp:165] Memory required for data: 1189048320
I0328 17:43:59.267892    34 layer_factory.hpp:77] Creating layer conv5_1_bn
I0328 17:43:59.267909    34 net.cpp:100] Creating Layer conv5_1_bn
I0328 17:43:59.267922    34 net.cpp:434] conv5_1_bn <- conv5_1
I0328 17:43:59.267933    34 net.cpp:395] conv5_1_bn -> conv5_1 (in-place)
I0328 17:43:59.268194    34 net.cpp:150] Setting up conv5_1_bn
I0328 17:43:59.268216    34 net.cpp:157] Top shape: 2 512 23 30 (706560)
I0328 17:43:59.268226    34 net.cpp:165] Memory required for data: 1191874560
I0328 17:43:59.268244    34 layer_factory.hpp:77] Creating layer relu5_1
I0328 17:43:59.268275    34 net.cpp:100] Creating Layer relu5_1
I0328 17:43:59.268287    34 net.cpp:434] relu5_1 <- conv5_1
I0328 17:43:59.268311    34 net.cpp:395] relu5_1 -> conv5_1 (in-place)
I0328 17:43:59.268632    34 net.cpp:150] Setting up relu5_1
I0328 17:43:59.268654    34 net.cpp:157] Top shape: 2 512 23 30 (706560)
I0328 17:43:59.268661    34 net.cpp:165] Memory required for data: 1194700800
I0328 17:43:59.268666    34 layer_factory.hpp:77] Creating layer conv5_2
I0328 17:43:59.268684    34 net.cpp:100] Creating Layer conv5_2
I0328 17:43:59.268690    34 net.cpp:434] conv5_2 <- conv5_1
I0328 17:43:59.268700    34 net.cpp:408] conv5_2 -> conv5_2
I0328 17:43:59.300617    34 net.cpp:150] Setting up conv5_2
I0328 17:43:59.300652    34 net.cpp:157] Top shape: 2 512 23 30 (706560)
I0328 17:43:59.300658    34 net.cpp:165] Memory required for data: 1197527040
I0328 17:43:59.300669    34 layer_factory.hpp:77] Creating layer conv5_2_bn
I0328 17:43:59.300683    34 net.cpp:100] Creating Layer conv5_2_bn
I0328 17:43:59.300693    34 net.cpp:434] conv5_2_bn <- conv5_2
I0328 17:43:59.300705    34 net.cpp:395] conv5_2_bn -> conv5_2 (in-place)
I0328 17:43:59.301033    34 net.cpp:150] Setting up conv5_2_bn
I0328 17:43:59.301054    34 net.cpp:157] Top shape: 2 512 23 30 (706560)
I0328 17:43:59.301060    34 net.cpp:165] Memory required for data: 1200353280
I0328 17:43:59.301069    34 layer_factory.hpp:77] Creating layer relu5_2
I0328 17:43:59.301079    34 net.cpp:100] Creating Layer relu5_2
I0328 17:43:59.301085    34 net.cpp:434] relu5_2 <- conv5_2
I0328 17:43:59.301092    34 net.cpp:395] relu5_2 -> conv5_2 (in-place)
I0328 17:43:59.301429    34 net.cpp:150] Setting up relu5_2
I0328 17:43:59.301450    34 net.cpp:157] Top shape: 2 512 23 30 (706560)
I0328 17:43:59.301456    34 net.cpp:165] Memory required for data: 1203179520
I0328 17:43:59.301462    34 layer_factory.hpp:77] Creating layer conv5_3
I0328 17:43:59.301486    34 net.cpp:100] Creating Layer conv5_3
I0328 17:43:59.301499    34 net.cpp:434] conv5_3 <- conv5_2
I0328 17:43:59.301512    34 net.cpp:408] conv5_3 -> conv5_3
I0328 17:43:59.333385    34 net.cpp:150] Setting up conv5_3
I0328 17:43:59.333427    34 net.cpp:157] Top shape: 2 512 23 30 (706560)
I0328 17:43:59.333433    34 net.cpp:165] Memory required for data: 1206005760
I0328 17:43:59.333443    34 layer_factory.hpp:77] Creating layer conv5_3_bn
I0328 17:43:59.333457    34 net.cpp:100] Creating Layer conv5_3_bn
I0328 17:43:59.333477    34 net.cpp:434] conv5_3_bn <- conv5_3
I0328 17:43:59.333489    34 net.cpp:395] conv5_3_bn -> conv5_3 (in-place)
I0328 17:43:59.333818    34 net.cpp:150] Setting up conv5_3_bn
I0328 17:43:59.333837    34 net.cpp:157] Top shape: 2 512 23 30 (706560)
I0328 17:43:59.333843    34 net.cpp:165] Memory required for data: 1208832000
I0328 17:43:59.333853    34 layer_factory.hpp:77] Creating layer relu5_3
I0328 17:43:59.333861    34 net.cpp:100] Creating Layer relu5_3
I0328 17:43:59.333869    34 net.cpp:434] relu5_3 <- conv5_3
I0328 17:43:59.333878    34 net.cpp:395] relu5_3 -> conv5_3 (in-place)
I0328 17:43:59.334211    34 net.cpp:150] Setting up relu5_3
I0328 17:43:59.334233    34 net.cpp:157] Top shape: 2 512 23 30 (706560)
I0328 17:43:59.334239    34 net.cpp:165] Memory required for data: 1211658240
I0328 17:43:59.334244    34 layer_factory.hpp:77] Creating layer pool5
I0328 17:43:59.334250    34 layer_factory.cpp:91] cuDNN does not support multiple tops. Using Caffe's own pooling layer.
I0328 17:43:59.334277    34 net.cpp:100] Creating Layer pool5
I0328 17:43:59.334290    34 net.cpp:434] pool5 <- conv5_3
I0328 17:43:59.334298    34 net.cpp:408] pool5 -> pool5
I0328 17:43:59.334308    34 net.cpp:408] pool5 -> pool5_mask
I0328 17:43:59.334403    34 net.cpp:150] Setting up pool5
I0328 17:43:59.334430    34 net.cpp:157] Top shape: 2 512 12 15 (184320)
I0328 17:43:59.334436    34 net.cpp:157] Top shape: 2 512 12 15 (184320)
I0328 17:43:59.334441    34 net.cpp:165] Memory required for data: 1213132800
I0328 17:43:59.334447    34 layer_factory.hpp:77] Creating layer upsample5
I0328 17:43:59.334457    34 net.cpp:100] Creating Layer upsample5
I0328 17:43:59.334463    34 net.cpp:434] upsample5 <- pool5
I0328 17:43:59.334470    34 net.cpp:434] upsample5 <- pool5_mask
I0328 17:43:59.334488    34 net.cpp:408] upsample5 -> pool5_D
I0328 17:43:59.334556    34 net.cpp:150] Setting up upsample5
I0328 17:43:59.334583    34 net.cpp:157] Top shape: 2 512 23 30 (706560)
I0328 17:43:59.334589    34 net.cpp:165] Memory required for data: 1215959040
I0328 17:43:59.334594    34 layer_factory.hpp:77] Creating layer conv5_3_D
I0328 17:43:59.334610    34 net.cpp:100] Creating Layer conv5_3_D
I0328 17:43:59.334623    34 net.cpp:434] conv5_3_D <- pool5_D
I0328 17:43:59.334636    34 net.cpp:408] conv5_3_D -> conv5_3_D
I0328 17:43:59.366534    34 net.cpp:150] Setting up conv5_3_D
I0328 17:43:59.366564    34 net.cpp:157] Top shape: 2 512 23 30 (706560)
I0328 17:43:59.366569    34 net.cpp:165] Memory required for data: 1218785280
I0328 17:43:59.366580    34 layer_factory.hpp:77] Creating layer conv5_3_D_bn
I0328 17:43:59.366596    34 net.cpp:100] Creating Layer conv5_3_D_bn
I0328 17:43:59.366603    34 net.cpp:434] conv5_3_D_bn <- conv5_3_D
I0328 17:43:59.366613    34 net.cpp:395] conv5_3_D_bn -> conv5_3_D (in-place)
I0328 17:43:59.366906    34 net.cpp:150] Setting up conv5_3_D_bn
I0328 17:43:59.366935    34 net.cpp:157] Top shape: 2 512 23 30 (706560)
I0328 17:43:59.366945    34 net.cpp:165] Memory required for data: 1221611520
I0328 17:43:59.366955    34 layer_factory.hpp:77] Creating layer relu5_3_D
I0328 17:43:59.366964    34 net.cpp:100] Creating Layer relu5_3_D
I0328 17:43:59.366971    34 net.cpp:434] relu5_3_D <- conv5_3_D
I0328 17:43:59.366981    34 net.cpp:395] relu5_3_D -> conv5_3_D (in-place)
I0328 17:43:59.367354    34 net.cpp:150] Setting up relu5_3_D
I0328 17:43:59.367383    34 net.cpp:157] Top shape: 2 512 23 30 (706560)
I0328 17:43:59.367393    34 net.cpp:165] Memory required for data: 1224437760
I0328 17:43:59.367403    34 layer_factory.hpp:77] Creating layer conv5_2_D
I0328 17:43:59.367435    34 net.cpp:100] Creating Layer conv5_2_D
I0328 17:43:59.367451    34 net.cpp:434] conv5_2_D <- conv5_3_D
I0328 17:43:59.367473    34 net.cpp:408] conv5_2_D -> conv5_2_D
I0328 17:43:59.399332    34 net.cpp:150] Setting up conv5_2_D
I0328 17:43:59.399375    34 net.cpp:157] Top shape: 2 512 23 30 (706560)
I0328 17:43:59.399389    34 net.cpp:165] Memory required for data: 1227264000
I0328 17:43:59.399406    34 layer_factory.hpp:77] Creating layer conv5_2_D_bn
I0328 17:43:59.399444    34 net.cpp:100] Creating Layer conv5_2_D_bn
I0328 17:43:59.399458    34 net.cpp:434] conv5_2_D_bn <- conv5_2_D
I0328 17:43:59.399508    34 net.cpp:395] conv5_2_D_bn -> conv5_2_D (in-place)
I0328 17:43:59.399771    34 net.cpp:150] Setting up conv5_2_D_bn
I0328 17:43:59.399796    34 net.cpp:157] Top shape: 2 512 23 30 (706560)
I0328 17:43:59.399806    34 net.cpp:165] Memory required for data: 1230090240
I0328 17:43:59.399823    34 layer_factory.hpp:77] Creating layer relu5_2_D
I0328 17:43:59.399840    34 net.cpp:100] Creating Layer relu5_2_D
I0328 17:43:59.399895    34 net.cpp:434] relu5_2_D <- conv5_2_D
I0328 17:43:59.399943    34 net.cpp:395] relu5_2_D -> conv5_2_D (in-place)
I0328 17:43:59.400321    34 net.cpp:150] Setting up relu5_2_D
I0328 17:43:59.400339    34 net.cpp:157] Top shape: 2 512 23 30 (706560)
I0328 17:43:59.400344    34 net.cpp:165] Memory required for data: 1232916480
I0328 17:43:59.400351    34 layer_factory.hpp:77] Creating layer conv5_1_D
I0328 17:43:59.400368    34 net.cpp:100] Creating Layer conv5_1_D
I0328 17:43:59.400375    34 net.cpp:434] conv5_1_D <- conv5_2_D
I0328 17:43:59.400384    34 net.cpp:408] conv5_1_D -> conv5_1_D
I0328 17:43:59.432507    34 net.cpp:150] Setting up conv5_1_D
I0328 17:43:59.432539    34 net.cpp:157] Top shape: 2 512 23 30 (706560)
I0328 17:43:59.432545    34 net.cpp:165] Memory required for data: 1235742720
I0328 17:43:59.432560    34 layer_factory.hpp:77] Creating layer conv5_1_D_bn
I0328 17:43:59.432591    34 net.cpp:100] Creating Layer conv5_1_D_bn
I0328 17:43:59.432612    34 net.cpp:434] conv5_1_D_bn <- conv5_1_D
I0328 17:43:59.432632    34 net.cpp:395] conv5_1_D_bn -> conv5_1_D (in-place)
I0328 17:43:59.432940    34 net.cpp:150] Setting up conv5_1_D_bn
I0328 17:43:59.432973    34 net.cpp:157] Top shape: 2 512 23 30 (706560)
I0328 17:43:59.432991    34 net.cpp:165] Memory required for data: 1238568960
I0328 17:43:59.433009    34 layer_factory.hpp:77] Creating layer relu5_1_D
I0328 17:43:59.433065    34 net.cpp:100] Creating Layer relu5_1_D
I0328 17:43:59.433089    34 net.cpp:434] relu5_1_D <- conv5_1_D
I0328 17:43:59.433104    34 net.cpp:395] relu5_1_D -> conv5_1_D (in-place)
I0328 17:43:59.433333    34 net.cpp:150] Setting up relu5_1_D
I0328 17:43:59.433356    34 net.cpp:157] Top shape: 2 512 23 30 (706560)
I0328 17:43:59.433365    34 net.cpp:165] Memory required for data: 1241395200
I0328 17:43:59.433377    34 layer_factory.hpp:77] Creating layer upsample4
I0328 17:43:59.433398    34 net.cpp:100] Creating Layer upsample4
I0328 17:43:59.433411    34 net.cpp:434] upsample4 <- conv5_1_D
I0328 17:43:59.433426    34 net.cpp:434] upsample4 <- pool4_mask
I0328 17:43:59.433442    34 net.cpp:408] upsample4 -> pool4_D
I0328 17:43:59.433503    34 net.cpp:150] Setting up upsample4
I0328 17:43:59.433526    34 net.cpp:157] Top shape: 2 512 45 60 (2764800)
I0328 17:43:59.433535    34 net.cpp:165] Memory required for data: 1252454400
I0328 17:43:59.433547    34 layer_factory.hpp:77] Creating layer conv4_3_D
I0328 17:43:59.433573    34 net.cpp:100] Creating Layer conv4_3_D
I0328 17:43:59.433585    34 net.cpp:434] conv4_3_D <- pool4_D
I0328 17:43:59.433606    34 net.cpp:408] conv4_3_D -> conv4_3_D
I0328 17:43:59.465549    34 net.cpp:150] Setting up conv4_3_D
I0328 17:43:59.465586    34 net.cpp:157] Top shape: 2 512 45 60 (2764800)
I0328 17:43:59.465597    34 net.cpp:165] Memory required for data: 1263513600
I0328 17:43:59.465642    34 layer_factory.hpp:77] Creating layer conv4_3_D_bn
I0328 17:43:59.465673    34 net.cpp:100] Creating Layer conv4_3_D_bn
I0328 17:43:59.465687    34 net.cpp:434] conv4_3_D_bn <- conv4_3_D
I0328 17:43:59.465711    34 net.cpp:395] conv4_3_D_bn -> conv4_3_D (in-place)
I0328 17:43:59.465996    34 net.cpp:150] Setting up conv4_3_D_bn
I0328 17:43:59.466022    34 net.cpp:157] Top shape: 2 512 45 60 (2764800)
I0328 17:43:59.466032    34 net.cpp:165] Memory required for data: 1274572800
I0328 17:43:59.466058    34 layer_factory.hpp:77] Creating layer relu4_3_D
I0328 17:43:59.466076    34 net.cpp:100] Creating Layer relu4_3_D
I0328 17:43:59.466087    34 net.cpp:434] relu4_3_D <- conv4_3_D
I0328 17:43:59.466101    34 net.cpp:395] relu4_3_D -> conv4_3_D (in-place)
I0328 17:43:59.466452    34 net.cpp:150] Setting up relu4_3_D
I0328 17:43:59.466480    34 net.cpp:157] Top shape: 2 512 45 60 (2764800)
I0328 17:43:59.466490    34 net.cpp:165] Memory required for data: 1285632000
I0328 17:43:59.466500    34 layer_factory.hpp:77] Creating layer conv4_2_D
I0328 17:43:59.466539    34 net.cpp:100] Creating Layer conv4_2_D
I0328 17:43:59.466560    34 net.cpp:434] conv4_2_D <- conv4_3_D
I0328 17:43:59.466579    34 net.cpp:408] conv4_2_D -> conv4_2_D
I0328 17:43:59.498195    34 net.cpp:150] Setting up conv4_2_D
I0328 17:43:59.498227    34 net.cpp:157] Top shape: 2 512 45 60 (2764800)
I0328 17:43:59.498237    34 net.cpp:165] Memory required for data: 1296691200
I0328 17:43:59.498256    34 layer_factory.hpp:77] Creating layer conv4_2_D_bn
I0328 17:43:59.498281    34 net.cpp:100] Creating Layer conv4_2_D_bn
I0328 17:43:59.498302    34 net.cpp:434] conv4_2_D_bn <- conv4_2_D
I0328 17:43:59.498325    34 net.cpp:395] conv4_2_D_bn -> conv4_2_D (in-place)
I0328 17:43:59.498618    34 net.cpp:150] Setting up conv4_2_D_bn
I0328 17:43:59.498642    34 net.cpp:157] Top shape: 2 512 45 60 (2764800)
I0328 17:43:59.498652    34 net.cpp:165] Memory required for data: 1307750400
I0328 17:43:59.498670    34 layer_factory.hpp:77] Creating layer relu4_2_D
I0328 17:43:59.498685    34 net.cpp:100] Creating Layer relu4_2_D
I0328 17:43:59.498715    34 net.cpp:434] relu4_2_D <- conv4_2_D
I0328 17:43:59.498735    34 net.cpp:395] relu4_2_D -> conv4_2_D (in-place)
I0328 17:43:59.499049    34 net.cpp:150] Setting up relu4_2_D
I0328 17:43:59.499074    34 net.cpp:157] Top shape: 2 512 45 60 (2764800)
I0328 17:43:59.499084    34 net.cpp:165] Memory required for data: 1318809600
I0328 17:43:59.499095    34 layer_factory.hpp:77] Creating layer conv4_1_D
I0328 17:43:59.499120    34 net.cpp:100] Creating Layer conv4_1_D
I0328 17:43:59.499133    34 net.cpp:434] conv4_1_D <- conv4_2_D
I0328 17:43:59.499160    34 net.cpp:408] conv4_1_D -> conv4_1_D
I0328 17:43:59.515619    34 net.cpp:150] Setting up conv4_1_D
I0328 17:43:59.515646    34 net.cpp:157] Top shape: 2 256 45 60 (1382400)
I0328 17:43:59.515658    34 net.cpp:165] Memory required for data: 1324339200
I0328 17:43:59.515676    34 layer_factory.hpp:77] Creating layer conv4_1_D_bn
I0328 17:43:59.515717    34 net.cpp:100] Creating Layer conv4_1_D_bn
I0328 17:43:59.515736    34 net.cpp:434] conv4_1_D_bn <- conv4_1_D
I0328 17:43:59.515754    34 net.cpp:395] conv4_1_D_bn -> conv4_1_D (in-place)
I0328 17:43:59.516041    34 net.cpp:150] Setting up conv4_1_D_bn
I0328 17:43:59.516065    34 net.cpp:157] Top shape: 2 256 45 60 (1382400)
I0328 17:43:59.516077    34 net.cpp:165] Memory required for data: 1329868800
I0328 17:43:59.516093    34 layer_factory.hpp:77] Creating layer relu4_1_D
I0328 17:43:59.516122    34 net.cpp:100] Creating Layer relu4_1_D
I0328 17:43:59.516142    34 net.cpp:434] relu4_1_D <- conv4_1_D
I0328 17:43:59.516157    34 net.cpp:395] relu4_1_D -> conv4_1_D (in-place)
I0328 17:43:59.516353    34 net.cpp:150] Setting up relu4_1_D
I0328 17:43:59.516377    34 net.cpp:157] Top shape: 2 256 45 60 (1382400)
I0328 17:43:59.516387    34 net.cpp:165] Memory required for data: 1335398400
I0328 17:43:59.516398    34 layer_factory.hpp:77] Creating layer upsample3
I0328 17:43:59.516424    34 net.cpp:100] Creating Layer upsample3
I0328 17:43:59.516436    34 net.cpp:434] upsample3 <- conv4_1_D
I0328 17:43:59.516449    34 net.cpp:434] upsample3 <- pool3_mask
I0328 17:43:59.516469    34 net.cpp:408] upsample3 -> pool3_D
I0328 17:43:59.516502    34 upsample_layer.cpp:27] Params 'pad_out_{}_' are deprecated. Please declare upsample height and width useing the upsample_h, upsample_w parameters.
I0328 17:43:59.516553    34 net.cpp:150] Setting up upsample3
I0328 17:43:59.516576    34 net.cpp:157] Top shape: 2 256 90 120 (5529600)
I0328 17:43:59.516585    34 net.cpp:165] Memory required for data: 1357516800
I0328 17:43:59.516597    34 layer_factory.hpp:77] Creating layer conv3_3_D
I0328 17:43:59.516623    34 net.cpp:100] Creating Layer conv3_3_D
I0328 17:43:59.516643    34 net.cpp:434] conv3_3_D <- pool3_D
I0328 17:43:59.516690    34 net.cpp:408] conv3_3_D -> conv3_3_D
I0328 17:43:59.525485    34 net.cpp:150] Setting up conv3_3_D
I0328 17:43:59.525514    34 net.cpp:157] Top shape: 2 256 90 120 (5529600)
I0328 17:43:59.525527    34 net.cpp:165] Memory required for data: 1379635200
I0328 17:43:59.525549    34 layer_factory.hpp:77] Creating layer conv3_3_D_bn
I0328 17:43:59.525571    34 net.cpp:100] Creating Layer conv3_3_D_bn
I0328 17:43:59.525583    34 net.cpp:434] conv3_3_D_bn <- conv3_3_D
I0328 17:43:59.525606    34 net.cpp:395] conv3_3_D_bn -> conv3_3_D (in-place)
I0328 17:43:59.525913    34 net.cpp:150] Setting up conv3_3_D_bn
I0328 17:43:59.525938    34 net.cpp:157] Top shape: 2 256 90 120 (5529600)
I0328 17:43:59.525952    34 net.cpp:165] Memory required for data: 1401753600
I0328 17:43:59.525970    34 layer_factory.hpp:77] Creating layer relu3_3_D
I0328 17:43:59.525992    34 net.cpp:100] Creating Layer relu3_3_D
I0328 17:43:59.526005    34 net.cpp:434] relu3_3_D <- conv3_3_D
I0328 17:43:59.526023    34 net.cpp:395] relu3_3_D -> conv3_3_D (in-place)
I0328 17:43:59.526329    34 net.cpp:150] Setting up relu3_3_D
I0328 17:43:59.526352    34 net.cpp:157] Top shape: 2 256 90 120 (5529600)
I0328 17:43:59.526363    34 net.cpp:165] Memory required for data: 1423872000
I0328 17:43:59.526374    34 layer_factory.hpp:77] Creating layer conv3_2_D
I0328 17:43:59.526407    34 net.cpp:100] Creating Layer conv3_2_D
I0328 17:43:59.526427    34 net.cpp:434] conv3_2_D <- conv3_3_D
I0328 17:43:59.526450    34 net.cpp:408] conv3_2_D -> conv3_2_D
I0328 17:43:59.535187    34 net.cpp:150] Setting up conv3_2_D
I0328 17:43:59.535214    34 net.cpp:157] Top shape: 2 256 90 120 (5529600)
I0328 17:43:59.535225    34 net.cpp:165] Memory required for data: 1445990400
I0328 17:43:59.535243    34 layer_factory.hpp:77] Creating layer conv3_2_D_bn
I0328 17:43:59.535265    34 net.cpp:100] Creating Layer conv3_2_D_bn
I0328 17:43:59.535281    34 net.cpp:434] conv3_2_D_bn <- conv3_2_D
I0328 17:43:59.535302    34 net.cpp:395] conv3_2_D_bn -> conv3_2_D (in-place)
I0328 17:43:59.535616    34 net.cpp:150] Setting up conv3_2_D_bn
I0328 17:43:59.535640    34 net.cpp:157] Top shape: 2 256 90 120 (5529600)
I0328 17:43:59.535650    34 net.cpp:165] Memory required for data: 1468108800
I0328 17:43:59.535676    34 layer_factory.hpp:77] Creating layer relu3_2_D
I0328 17:43:59.535691    34 net.cpp:100] Creating Layer relu3_2_D
I0328 17:43:59.535702    34 net.cpp:434] relu3_2_D <- conv3_2_D
I0328 17:43:59.535717    34 net.cpp:395] relu3_2_D -> conv3_2_D (in-place)
I0328 17:43:59.536056    34 net.cpp:150] Setting up relu3_2_D
I0328 17:43:59.536080    34 net.cpp:157] Top shape: 2 256 90 120 (5529600)
I0328 17:43:59.536092    34 net.cpp:165] Memory required for data: 1490227200
I0328 17:43:59.536103    34 layer_factory.hpp:77] Creating layer conv3_1_D
I0328 17:43:59.536128    34 net.cpp:100] Creating Layer conv3_1_D
I0328 17:43:59.536139    34 net.cpp:434] conv3_1_D <- conv3_2_D
I0328 17:43:59.536165    34 net.cpp:408] conv3_1_D -> conv3_1_D
I0328 17:43:59.541231    34 net.cpp:150] Setting up conv3_1_D
I0328 17:43:59.541259    34 net.cpp:157] Top shape: 2 128 90 120 (2764800)
I0328 17:43:59.541272    34 net.cpp:165] Memory required for data: 1501286400
I0328 17:43:59.541291    34 layer_factory.hpp:77] Creating layer conv3_1_D_bn
I0328 17:43:59.541321    34 net.cpp:100] Creating Layer conv3_1_D_bn
I0328 17:43:59.541337    34 net.cpp:434] conv3_1_D_bn <- conv3_1_D
I0328 17:43:59.541358    34 net.cpp:395] conv3_1_D_bn -> conv3_1_D (in-place)
I0328 17:43:59.541713    34 net.cpp:150] Setting up conv3_1_D_bn
I0328 17:43:59.541738    34 net.cpp:157] Top shape: 2 128 90 120 (2764800)
I0328 17:43:59.541749    34 net.cpp:165] Memory required for data: 1512345600
I0328 17:43:59.541765    34 layer_factory.hpp:77] Creating layer relu3_1_D
I0328 17:43:59.541784    34 net.cpp:100] Creating Layer relu3_1_D
I0328 17:43:59.541797    34 net.cpp:434] relu3_1_D <- conv3_1_D
I0328 17:43:59.541812    34 net.cpp:395] relu3_1_D -> conv3_1_D (in-place)
I0328 17:43:59.542002    34 net.cpp:150] Setting up relu3_1_D
I0328 17:43:59.542038    34 net.cpp:157] Top shape: 2 128 90 120 (2764800)
I0328 17:43:59.542049    34 net.cpp:165] Memory required for data: 1523404800
I0328 17:43:59.542062    34 layer_factory.hpp:77] Creating layer upsample2
I0328 17:43:59.542078    34 net.cpp:100] Creating Layer upsample2
I0328 17:43:59.542091    34 net.cpp:434] upsample2 <- conv3_1_D
I0328 17:43:59.542105    34 net.cpp:434] upsample2 <- pool2_mask
I0328 17:43:59.542130    34 net.cpp:408] upsample2 -> pool2_D
I0328 17:43:59.542155    34 upsample_layer.cpp:27] Params 'pad_out_{}_' are deprecated. Please declare upsample height and width useing the upsample_h, upsample_w parameters.
I0328 17:43:59.542212    34 net.cpp:150] Setting up upsample2
I0328 17:43:59.542233    34 net.cpp:157] Top shape: 2 128 180 240 (11059200)
I0328 17:43:59.542244    34 net.cpp:165] Memory required for data: 1567641600
I0328 17:43:59.542255    34 layer_factory.hpp:77] Creating layer conv2_2_D
I0328 17:43:59.542284    34 net.cpp:100] Creating Layer conv2_2_D
I0328 17:43:59.542301    34 net.cpp:434] conv2_2_D <- pool2_D
I0328 17:43:59.542328    34 net.cpp:408] conv2_2_D -> conv2_2_D
I0328 17:43:59.545681    34 net.cpp:150] Setting up conv2_2_D
I0328 17:43:59.545717    34 net.cpp:157] Top shape: 2 128 180 240 (11059200)
I0328 17:43:59.545728    34 net.cpp:165] Memory required for data: 1611878400
I0328 17:43:59.545747    34 layer_factory.hpp:77] Creating layer conv2_2_D_bn
I0328 17:43:59.545763    34 net.cpp:100] Creating Layer conv2_2_D_bn
I0328 17:43:59.545784    34 net.cpp:434] conv2_2_D_bn <- conv2_2_D
I0328 17:43:59.545805    34 net.cpp:395] conv2_2_D_bn -> conv2_2_D (in-place)
I0328 17:43:59.546167    34 net.cpp:150] Setting up conv2_2_D_bn
I0328 17:43:59.546190    34 net.cpp:157] Top shape: 2 128 180 240 (11059200)
I0328 17:43:59.546201    34 net.cpp:165] Memory required for data: 1656115200
I0328 17:43:59.546219    34 layer_factory.hpp:77] Creating layer relu2_2_D
I0328 17:43:59.546244    34 net.cpp:100] Creating Layer relu2_2_D
I0328 17:43:59.546258    34 net.cpp:434] relu2_2_D <- conv2_2_D
I0328 17:43:59.546278    34 net.cpp:395] relu2_2_D -> conv2_2_D (in-place)
I0328 17:43:59.546610    34 net.cpp:150] Setting up relu2_2_D
I0328 17:43:59.546638    34 net.cpp:157] Top shape: 2 128 180 240 (11059200)
I0328 17:43:59.546649    34 net.cpp:165] Memory required for data: 1700352000
I0328 17:43:59.546660    34 layer_factory.hpp:77] Creating layer conv2_1_D
I0328 17:43:59.546684    34 net.cpp:100] Creating Layer conv2_1_D
I0328 17:43:59.546696    34 net.cpp:434] conv2_1_D <- conv2_2_D
I0328 17:43:59.546715    34 net.cpp:408] conv2_1_D -> conv2_1_D
I0328 17:43:59.548565    34 net.cpp:150] Setting up conv2_1_D
I0328 17:43:59.548593    34 net.cpp:157] Top shape: 2 64 180 240 (5529600)
I0328 17:43:59.548604    34 net.cpp:165] Memory required for data: 1722470400
I0328 17:43:59.548622    34 layer_factory.hpp:77] Creating layer conv2_1_D_bn
I0328 17:43:59.548643    34 net.cpp:100] Creating Layer conv2_1_D_bn
I0328 17:43:59.548658    34 net.cpp:434] conv2_1_D_bn <- conv2_1_D
I0328 17:43:59.548681    34 net.cpp:395] conv2_1_D_bn -> conv2_1_D (in-place)
I0328 17:43:59.549549    34 net.cpp:150] Setting up conv2_1_D_bn
I0328 17:43:59.549576    34 net.cpp:157] Top shape: 2 64 180 240 (5529600)
I0328 17:43:59.549587    34 net.cpp:165] Memory required for data: 1744588800
I0328 17:43:59.549604    34 layer_factory.hpp:77] Creating layer relu2_1_D
I0328 17:43:59.549620    34 net.cpp:100] Creating Layer relu2_1_D
I0328 17:43:59.549633    34 net.cpp:434] relu2_1_D <- conv2_1_D
I0328 17:43:59.549646    34 net.cpp:395] relu2_1_D -> conv2_1_D (in-place)
I0328 17:43:59.549957    34 net.cpp:150] Setting up relu2_1_D
I0328 17:43:59.549984    34 net.cpp:157] Top shape: 2 64 180 240 (5529600)
I0328 17:43:59.549995    34 net.cpp:165] Memory required for data: 1766707200
I0328 17:43:59.550006    34 layer_factory.hpp:77] Creating layer upsample1
I0328 17:43:59.550022    34 net.cpp:100] Creating Layer upsample1
I0328 17:43:59.550034    34 net.cpp:434] upsample1 <- conv2_1_D
I0328 17:43:59.550072    34 net.cpp:434] upsample1 <- pool1_mask
I0328 17:43:59.550096    34 net.cpp:408] upsample1 -> pool1_D
I0328 17:43:59.550114    34 upsample_layer.cpp:27] Params 'pad_out_{}_' are deprecated. Please declare upsample height and width useing the upsample_h, upsample_w parameters.
I0328 17:43:59.550178    34 net.cpp:150] Setting up upsample1
I0328 17:43:59.550199    34 net.cpp:157] Top shape: 2 64 360 480 (22118400)
I0328 17:43:59.550209    34 net.cpp:165] Memory required for data: 1855180800
I0328 17:43:59.550220    34 layer_factory.hpp:77] Creating layer conv1_2_D
I0328 17:43:59.550248    34 net.cpp:100] Creating Layer conv1_2_D
I0328 17:43:59.550269    34 net.cpp:434] conv1_2_D <- pool1_D
I0328 17:43:59.550287    34 net.cpp:408] conv1_2_D -> conv1_2_D
I0328 17:43:59.552362    34 net.cpp:150] Setting up conv1_2_D
I0328 17:43:59.552388    34 net.cpp:157] Top shape: 2 64 360 480 (22118400)
I0328 17:43:59.552399    34 net.cpp:165] Memory required for data: 1943654400
I0328 17:43:59.552426    34 layer_factory.hpp:77] Creating layer conv1_2_D_bn
I0328 17:43:59.552450    34 net.cpp:100] Creating Layer conv1_2_D_bn
I0328 17:43:59.552471    34 net.cpp:434] conv1_2_D_bn <- conv1_2_D
I0328 17:43:59.552490    34 net.cpp:395] conv1_2_D_bn -> conv1_2_D (in-place)
I0328 17:43:59.553974    34 net.cpp:150] Setting up conv1_2_D_bn
I0328 17:43:59.553999    34 net.cpp:157] Top shape: 2 64 360 480 (22118400)
I0328 17:43:59.554010    34 net.cpp:165] Memory required for data: 2032128000
I0328 17:43:59.554028    34 layer_factory.hpp:77] Creating layer relu1_2_D
I0328 17:43:59.554049    34 net.cpp:100] Creating Layer relu1_2_D
I0328 17:43:59.554074    34 net.cpp:434] relu1_2_D <- conv1_2_D
I0328 17:43:59.554090    34 net.cpp:395] relu1_2_D -> conv1_2_D (in-place)
I0328 17:43:59.554297    34 net.cpp:150] Setting up relu1_2_D
I0328 17:43:59.554322    34 net.cpp:157] Top shape: 2 64 360 480 (22118400)
I0328 17:43:59.554332    34 net.cpp:165] Memory required for data: 2120601600
I0328 17:43:59.554342    34 layer_factory.hpp:77] Creating layer conv1_1_D
I0328 17:43:59.554368    34 net.cpp:100] Creating Layer conv1_1_D
I0328 17:43:59.554386    34 net.cpp:434] conv1_1_D <- conv1_2_D
I0328 17:43:59.554409    34 net.cpp:408] conv1_1_D -> conv1_1_D
I0328 17:43:59.556385    34 net.cpp:150] Setting up conv1_1_D
I0328 17:43:59.556411    34 net.cpp:157] Top shape: 2 11 360 480 (3801600)
I0328 17:43:59.556421    34 net.cpp:165] Memory required for data: 2135808000
I0328 17:43:59.556438    34 layer_factory.hpp:77] Creating layer conv1_1_D_conv1_1_D_0_split
I0328 17:43:59.556459    34 net.cpp:100] Creating Layer conv1_1_D_conv1_1_D_0_split
I0328 17:43:59.556474    34 net.cpp:434] conv1_1_D_conv1_1_D_0_split <- conv1_1_D
I0328 17:43:59.556490    34 net.cpp:408] conv1_1_D_conv1_1_D_0_split -> conv1_1_D_conv1_1_D_0_split_0
I0328 17:43:59.556516    34 net.cpp:408] conv1_1_D_conv1_1_D_0_split -> conv1_1_D_conv1_1_D_0_split_1
I0328 17:43:59.556592    34 net.cpp:150] Setting up conv1_1_D_conv1_1_D_0_split
I0328 17:43:59.556615    34 net.cpp:157] Top shape: 2 11 360 480 (3801600)
I0328 17:43:59.556628    34 net.cpp:157] Top shape: 2 11 360 480 (3801600)
I0328 17:43:59.556638    34 net.cpp:165] Memory required for data: 2166220800
I0328 17:43:59.556649    34 layer_factory.hpp:77] Creating layer loss
I0328 17:43:59.556684    34 net.cpp:100] Creating Layer loss
I0328 17:43:59.556705    34 net.cpp:434] loss <- conv1_1_D_conv1_1_D_0_split_0
I0328 17:43:59.556720    34 net.cpp:434] loss <- label_data_1_split_0
I0328 17:43:59.556737    34 net.cpp:408] loss -> loss
I0328 17:43:59.556778    34 layer_factory.hpp:77] Creating layer loss
I0328 17:43:59.565217    34 net.cpp:150] Setting up loss
I0328 17:43:59.565265    34 net.cpp:157] Top shape: (1)
I0328 17:43:59.565279    34 net.cpp:160]     with loss weight 1
I0328 17:43:59.565330    34 net.cpp:165] Memory required for data: 2166220804
I0328 17:43:59.565345    34 layer_factory.hpp:77] Creating layer accuracy
I0328 17:43:59.565366    34 net.cpp:100] Creating Layer accuracy
I0328 17:43:59.565387    34 net.cpp:434] accuracy <- conv1_1_D_conv1_1_D_0_split_1
I0328 17:43:59.565438    34 net.cpp:434] accuracy <- label_data_1_split_1
I0328 17:43:59.565459    34 net.cpp:408] accuracy -> accuracy
I0328 17:43:59.565497    34 net.cpp:408] accuracy -> per_class_accuracy
I0328 17:43:59.565580    34 net.cpp:150] Setting up accuracy
I0328 17:43:59.565603    34 net.cpp:157] Top shape: (1)
I0328 17:43:59.565615    34 net.cpp:157] Top shape: 11 (11)
I0328 17:43:59.565624    34 net.cpp:165] Memory required for data: 2166220852
I0328 17:43:59.565639    34 net.cpp:228] accuracy does not need backward computation.
I0328 17:43:59.565661    34 net.cpp:226] loss needs backward computation.
I0328 17:43:59.565675    34 net.cpp:226] conv1_1_D_conv1_1_D_0_split needs backward computation.
I0328 17:43:59.565685    34 net.cpp:226] conv1_1_D needs backward computation.
…
